model/keypoint_classifier/keypoint_classifier.tflite (tflite, 6544 bytes, 6 tensors)

sequential/dense/BiasAdd/ReadVariableOp f4 [20]
-0.42440602 -0.7379088 -0.61098665 -0.35184824 -0.25908363 -0.53363043 -0.5488062 -0.65915996
-0.7968294 -0.13009469 -0.58378977 -0.69322973 0.1936032 -0.28808165 -0.36012825 -0.3509592
-0.42309895 -0.4994036 -0.6608072 -0.36363354
00000000: bf4b d9be 97e7 3cbf 9f69 1cbf 7425 b4be
00000010: 9ca6 84be 019c 08bf 907e 0cbf b5be 28bf
00000020: 03fd 4bbf 8b37 05be 3f73 15bf 8177 31bf
00000030: eb3f 463e 707f 93be bb62 b8be edb0 b3be
00000040: 6da0 d8be d4b1 ffbe a92a 29bf 2d2e babe

sequential/dense_2/BiasAdd/ReadVariableOp f4 [4]
-0.13626662 -0.4326681 0.4904557 0.0009608868
00000000: 7a89 0bbe ac86 ddbe 021d fb3e 06e4 7b3a

sequential/dense_1/BiasAdd/ReadVariableOp f4 [10]
0.39702958 -0.41869706 -0.15263854 0.7081646 0.49142125 0.13423815 -0.15890169 -0.013824055
-0.13886985 0.2154043
00000000: 7647 cb3e 765f d6be 474d 1cbe 464a 353f
00000010: 919b fb3e ba75 093e 20b7 22be 4a7e 62bc
00000020: e633 0ebe f292 5c3e

sequential/dense/MatMul f4 [20, 42]
0.081522614 0.3083825 -0.122470595 0.025425756 0.02054215 0.14074284 0.02458671 0.2364574
-0.02922263 0.3057701 0.15800057 0.0066227824 0.02916238 0.07976558 -0.08730847 0.070974566
-0.07968925 -0.002878376 0.20435458 0.074601844 0.045231 0.09084367 -0.1406332 -0.16184531
-0.07356521 -0.36686966 0.107956424 0.18167838 0.036054544 0.12690248 -0.07068738 -0.35611236
0.157859 -0.83695525 0.06607504 0.18658449 0.083403245 0.16985336 -0.09822088 -0.24002142
-0.39052188 -0.53870815 0.03756824 0.061433166 -0.19165777 -0.81515867 -0.03493592 -0.42404738
-0.26354837 -0.2597761 -0.09762363 -0.23720257 -0.086087316 -0.06575356 0.044406746 0.0012757424
0.01521766 0.19673643 0.012905304 0.1816975 -0.07717 -0.018812917 0.19965975 -0.16043244
-0.002826529 -0.004029233 -0.12271211 0.06722594 -0.06859535 -0.10434394 0.10360716 -0.17846714
0.051960703 -0.07258279 -0.11476612 0.048427932 -0.010330963 -0.21240616 0.07456413 -0.27209052
-0.035055358 -0.26399565 -0.104629025 -0.04662579 0.06973305 -0.18248086 -0.7593123 -0.24240842
-0.45223975 -0.092423484 -0.3936444 -0.46730062 -0.35557917 -0.3933544 -0.360556 0.011931223
-0.13497987 -0.070460744 0.14525369 0.15965503 0.2753672 0.19189474 -0.42779598 -0.005753657
-0.17241712 -0.12144686 0.09397586 -0.07557101 0.12553959 0.009852175 -0.17670187 -0.040876724
-0.1631227 -0.25664702 0.09470643 -0.060931373 0.14159493 0.03828251 -0.22803374 -0.040048297
-0.14446081 -0.25587893 -0.06965188 -0.06603592 -0.018098416 0.06344701 0.2792551 -0.17795362
0.185535 0.22947696 0.25112316 -0.0944697 0.22320308 -0.35719374 0.2420271 -0.37802535
-0.08239629 0.03333341 -0.012648272 0.039763205 0.015094766 0.024558581 -0.0037537185 -0.030691372
-0.05945741 0.013314962 -0.020483471 -0.12826177 -0.086056955 -0.0061962125 -0.3857227 0.32868168
-0.05099634 -0.04028603 0.030388573 -0.07928938 -0.186907 0.14610626 -0.56455094 0.674643
0.21934225 -0.14623298 0.21603088 -0.08642355 -0.0045923567 0.27507916 -0.4151661 0.41281378
-0.30328357 -0.07500748 0.039107937 0.2303426 -0.23254816 -0.071932495 -0.40208182 -0.15271164
-0.7388462 -0.18361828 -0.05641841 0.2987812 -0.04152671 0.047936816 0.027464146 -0.12576284
0.15541106 -0.08580654 -0.19591978 0.35762537 -0.07897447 -0.06420874 0.2249578 0.05903697
0.4679644 -0.14216669 -0.28518587 0.3946991 -0.12663507 -0.107887894 0.5491094 0.10351276
0.7125885 -0.041093074 -0.20598456 0.38265437 -0.012614787 0.10334411 0.26434606 0.12379956
0.51973814 0.23768748 -0.19592413 -0.2637645 0.72925705 0.56681114 0.50045735 0.0629078
0.49743494 -0.019661637 0.63090366 -0.1436693 -0.10910157 0.055545576 -0.059468526 0.0007646922
0.025327448 -0.005063752 0.060877834 -0.035833284 -0.031859413 0.011354462 -0.13330269 -0.025687253
-0.11843745 0.00871544 -0.3822666 -0.015898082 0.22733244 -0.12457592 -0.25383848 0.0043981555
-0.51907235 0.13741614 -0.4615686 -0.013015087 0.21895327 -0.15056002 -0.07913827 0.0624287
-0.56776845 0.13872476 -0.57630515 0.10960971 -0.22843415 -0.19498983 0.1415782 0.56006014
00000000: 54f5 a63d 50e4 9d3e ddd1 fabd ad49 d03c
00000010: 0348 a83c e41e 103e 116a c93c e321 723e
00000020: 4c64 efbc e68d 9c3e e7ca 213e ed03 d93b
00000030: f2e5 ee3c 235c a33d c8ce b2bd 1d5b 913d
00000040: 1e34 a3bd 23a3 3cbb 5442 513e dac8 983d
00000050: 2444 393d 3f0c ba3d 2602 10be c7ba 25be
00000060: 5ba9 96bd 57d6 bbbe 4218 dd3d e609 3a3e
00000070: eead 133d b9f2 013e 8cc4 90bd 5c54 b6be
00000080: caa5 213e b342 56bf 5a52 873d 0110 3f3e
00000090: 52cf aa3d 0aee 2d3e 0728 c9bd 2dc8 75be
000000a0: 7cf2 c7be c7e8 09bf 28e1 193d 58a1 7b3d
000000b0: ef41 44be 3dae 50bf f818 0fbd bd1c d9be
000000c0: d0ef 86be 5f01 85be e6ee c7bd 3be5 72be
000000d0: 8c4e b0bd cda9 86bd d9e3 353d d036 a73a
000000e0: 7e53 793c 4675 493e c570 533c e90e 3a3e
000000f0: 4e0b 9ebd 8c1d 9abc 9b73 4c3e 6748 24be
00000100: 4a3d 39bb a807 84bb 7d50 fbbd c1ad 893d
00000110: b87b 8cbd 47b2 d5bd fe2f d43d 17c0 36be
00000120: bfd4 543d 49a6 94bd 800a ebbd 5e5c 463d
00000130: 3343 29bc 0081 59be 14b5 983d 734f 8bbe
00000140: 3596 0fbd 702a 87be be47 d6bd affa 3ebd
00000150: 34d0 8e3d 43dc 3abe 4a62 42bf ea39 78be
00000160: f88b e7be 8648 bdbd c28b c9be 0742 efbe
00000170: 790e b6be bf65 c9be cc9a b8be 2d7b 433c
00000180: 2a38 0abe b94d 90bd 62bd 143e 9c7c 233e
00000190: eefc 8c3e 0e80 443e 1308 dbbe 2c89 bcbb
000001a0: 1d8e 30be 22b9 f8bd 6a76 c03d f9c4 9abd
000001b0: 738d 003e 046b 213c 56f1 34be 5a6e 27bd
000001c0: a309 27be 3d67 83be 72f5 c13d 2d93 79bd
000001d0: 43fe 103e 1fce 1c3d ad81 69be af09 24bd
000001e0: 89ed 13be 9002 83be a5a5 8ebd d73d 87bd
000001f0: 2143 94bc 82f0 813d 86fa 8e3e 7939 36be
00000200: e3fc 3d3e 02fc 6a3e 3793 803e 5479 c1bd
00000210: 598f 643e 19e2 b6be f4d5 773e 8a8c c1be
00000220: 63bf a8bd 9d88 083d b33a 4fbc bede 223d
00000230: 0a50 773c 142f c93c f200 76bb 796c fbbc
00000240: 9d89 73bd 0027 5a3c f4cc a7bc 0e57 03be
00000250: a13e b0bd 9909 cbbb 727d c5be f748 a83e
00000260: 8ae1 50bd f702 25bd 75f1 f83c 7862 a2bd
00000270: 8c64 3fbe e19c 153e 6986 10bf 67b5 2c3f
00000280: 419b 603e 19be 15be 3337 5d3e d5fe b0bd
00000290: 7b7b 96bb 2dd7 8c3e a790 d4be 545c d33e
000002a0: fc47 9bbe 869d 99bd a52f 203d eede 6b3e
000002b0: 1b21 6ebe 5851 93bd abdd cdbe 7160 1cbe
000002c0: 0625 3dbf 6e06 3cbe fe16 67bd d9f9 983e
000002d0: e917 2abd 6559 443d 7dfc e03c f9c7 00be
000002e0: 1424 1f3e 57bb afbd 329f 48be ac1a b73e
000002f0: 5ebd a1bd df7f 83bd 565b 663e c0d0 713d
00000300: 0899 ef3e 2594 11be e203 92be 0016 ca3e
00000310: a0ac 01be 54f4 dcbd 6f92 0c3f 7ffe d33d
00000320: 336c 363f 3651 28bd 9eed 52be 46eb c33e
00000330: 40ae 4ebc 14a6 d33d 5e58 873e a08a fd3d
00000340: 8f0d 053f 5964 733e 56a0 48be 240c 87be
00000350: 97b0 3a3f 891a 113f f91d 003f ced5 803d
00000360: cbaf fe3e 7111 a1bc e782 213f 0c1e 13be
00000370: a570 dfbd c283 633d 4595 73bd a075 483a
00000380: 827b cf3c d5ed a5bb 095b 793d ecc5 12bd
00000390: 047f 02bd 1108 3a3c 8080 08be 136e d2bc
000003a0: 558f f2bd 34cb 0e3c 73b8 c3be b23c 82bc
000003b0: d6c9 683e a921 ffbd 1ef7 81be 671e 903b
000003c0: ede1 04bf d1b6 0c3e b852 ecbe 3b3d 55bc
000003d0: 4935 603e 682c 1abe 3f13 a2bd 3db5 7f3d
000003e0: 4659 11bf dd0d 0e3e bc88 13bf 0e7b e03d
000003f0: a4ea 69be 6aab 47be e0f9 103e 1a60 0f3f

sequential/dense_1/MatMul f4 [10, 20]
-0.072940156 0.81113124 -1.4429305 -0.12279442 0.017523415 -0.128678 0.23359634 0.19636004
0.75284714 -0.3259624 0.0113736205 1.0928293 0.15382445 -0.123321354 -0.8244622 0.19372281
0.14717634 -0.3350574 0.32173723 0.19143993 -0.011120038 0.43580228 0.72879446 0.002794454
-0.010950977 -0.09648525 -0.09626005 -0.013823428 0.7097257 -0.34751672 0.02272303 -0.3266544
0.026829503 -0.10714789 0.72513837 0.14771238 0.38123837 -0.116611205 0.19412367 0.08204359
0.29970366 -0.231919 0.21679449 0.6756097 0.18146682 0.8045152 -0.123364836 0.32749042
-0.179887 0.3120974 0.017993817 0.00939816 0.3623805 -0.20542236 0.6165902 0.049553905
0.06333138 0.44687048 0.37235013 0.28558254 -0.05839905 -0.5346176 -0.31051654 0.3222894
0.5406784 -0.19653992 0.14254436 0.07352519 -0.50441486 1.2164558 -0.0048801205 -0.23867221
0.28588754 -0.10408348 0.09426146 0.5509212 0.4293961 -0.42684197 -0.2766787 -0.0071043656
-0.9675584 0.039340403 0.40349263 -0.17864178 -0.14453782 -0.21909031 0.837567 0.04581321
0.6458425 0.12238481 -0.2753139 0.8973342 0.36934558 -0.67778885 0.61831605 -0.5458616
0.31159928 -0.25250125 0.1980567 -0.22659142 0.8702159 0.587455 0.04098891 -0.06378327
-0.6443211 -0.17909503 -0.64940906 -0.07111421 -0.044148654 -0.84186226 0.47137958 -0.23297429
-0.1864262 0.53930044 -0.43355754 -0.6104293 -0.68744564 0.2693255 -0.31391606 0.5294754
0.08144946 0.18954928 -0.047398843 0.90763426 0.4393942 1.01487 0.51946807 0.7123143
0.071723014 0.31116927 0.05918259 0.15986584 0.19952735 0.38560805 0.32686168 0.91428375
0.066095844 0.7693749 0.7497929 0.060336195 -0.54944825 0.40115067 0.08899283 0.5512501
0.45339155 -0.39099038 -0.01877548 -0.09808056 -0.1980762 -0.11854766 -0.47277084 -0.37129512
0.0031856934 -0.5947148 -0.0023117235 0.880928 0.0055288947 0.38300815 -0.052953966 0.8660908
0.67672575 -0.59821206 0.3869462 0.37337837 0.39430472 -0.24318762 0.22618362 0.5440617
0.034236513 -0.08070961 0.8594343 0.22587563 0.04958056 0.846897 0.047188185 -0.26984373
0.03524605 0.53532845 0.29868272 0.2757393 -0.36480227 0.31940722 -0.76604104 0.13867694
0.14513958 -0.06096564 0.22753985 0.09858123 0.23949558 -0.09766371 0.24585533 0.9976607
-0.36704132 0.025290487 -0.28001127 0.08318645 0.16805302 0.11247258 -0.75168985 -0.04789655
00000000: a661 95bd 4ca6 4f3f f2b1 b8bf a47b fbbd
00000010: 448d 8f3c 2ac4 03be e133 6f3e 9b12 493e
00000020: 97ba 403f 8be4 a6be 6c58 3a3c d5e1 8b3f
00000030: 2884 1d3e e88f fcbd f40f 53bf 465f 463e
00000040: 65b5 163e a58c abbe beba a43e d408 443e
00000050: d230 36bc 7a21 df3e 4692 3a3f 2923 373b
00000060: ba6b 33bc 0f9a c5bd fd23 c5bd a97b 62bc
00000070: 95b0 353f b6ed b1be a625 ba3c 3f3f a7be
00000080: 8cc9 db3c 5a70 dbbd aba2 393f ea41 173e
00000090: ad31 c33e dbd1 eebd 5bc8 463e 7806 a83d
000000a0: c272 993e 2d7c 6dbe 60ff 5d3e c2f4 2c3f
000000b0: 70d2 393e b5f4 4d3f b4a6 fcbd d3ac a73e
000000c0: 4c34 38be 3bcb 9f3e c567 933c bdfa 193c
000000d0: f089 b93e 3d5a 52be dbd8 1d3f 09f9 4a3d
000000e0: e2b3 813d 35cc e43e ada4 be3e e037 923e
000000f0: d833 6fbd b3dc 08bf 06fc 9ebe 1e03 a53e
00000100: e669 0a3f c341 49be 26f7 113e 6094 963d
00000110: 5521 01bf d3b4 9b3f 6be9 9fbb 7d66 74be
00000120: da5f 923e b829 d5bd 270c c13d 2c09 0d3f
00000130: ced9 db3e 088b dabe d5a8 8dbe bdcb e8bb
00000140: e8b1 77bf 6723 213d 9696 ce3e dfed 36be
00000150: b901 14be 3659 60be ca6a 563f a2a6 3b3d
00000160: ef55 253f e3a4 fa3d f2f5 8cbe b2b7 653f
00000170: dd1a bd3e 9283 2dbf f649 1e3f 96bd 0bbf
00000180: f189 9f3e d847 81be 60cf 4a3e 9507 68be
00000190: 78c6 5e3f 7363 163f fde3 273d cea0 82bd
000001a0: 3af2 24bf b064 37be ac3f 26bf 54a4 91bd
000001b0: 38d5 34bd 4984 57bf aa58 f13e d090 6ebe
000001c0: 83e6 3ebe 980f 0a3f 41fb ddbe 1845 1cbf
000001d0: 70fc 2fbf 08e5 893e 9bb9 a0be b38b 073f
000001e0: f9ce a63d 3519 423e 4a25 42bd b85a 683f
000001f0: 47f8 e03e 43e7 813f dcfb 043f 3b5a 363f
00000200: 84e3 923d 9451 9f3e 7269 723d dfb3 233e
00000210: e650 4c3e 6b6e c53e 6a5a a73e 800e 6a3f
00000220: 425d 873d c1f5 443f 6df2 3f3f 1623 773d
00000230: a4a8 0cbf 9f63 cd3e df41 b63d ba1e 0d3f
00000240: f022 e83e e42f c8be 09cf 99bc 76de c8bd
00000250: 7dd4 4abe 1ec9 f2bd 050f f2be 651a bebe
00000260: 11c7 503b 3b3f 18bf 4980 17bb 7f84 613f
00000270: bb2b b53b a519 c43e 42e6 58bd 20b8 5d3f
00000280: e63d 2d3f 6d24 19bf d01d c63e 732b bf3e
00000290: 4fe2 c93e 2d06 79be ae9c 673e a147 0b3f
000002a0: 963b 0c3d 144b a5bd e303 5c3f f14b 673e
000002b0: fc14 4b3d 3ece 583f 6648 413d f528 8abe
000002c0: 2a5e 103d 490b 093f f1ec 983e b42d 8d3e
000002d0: 5dc7 babe 5889 a33e 441b 44bf 5401 0e3e
000002e0: 789f 143e 1bb7 79bd 3500 693e f5e4 c93d
000002f0: 543e 753e e903 c8bd 80c1 7b3e b166 7f3f
00000300: d7ec bbbe ff2d cf3c a35d 8fbe a85d aa3d
00000310: 1716 2c3e 0658 e63d bf6e 40bf 2c2f 44bd

sequential/dense_2/MatMul f4 [4, 10]
-0.315972 -0.8157011 0.46562412 0.64002055 -0.9543354 -0.19275567 1.0789163 0.61918193
0.76326203 -0.50086033 1.3682109 0.9400426 0.47467342 -0.6898626 0.46062982 -0.74047786
0.52760124 -0.43768817 0.6352869 0.7642785 -0.059318073 -0.5480207 -0.7994286 1.1536386
1.0606952 0.092172444 -0.5206245 -1.539982 -0.53960824 -0.6394766 -0.4785796 -0.48742148
-0.87477976 -1.8565679 -0.77449113 1.0476215 -1.5380515 1.0410123 0.44577724 0.55980843
00000000: 15c7 a1be cad1 50bf 4966 ee3e 63d8 233f
00000010: 534f 74bf be61 45be ee19 8a3f b582 1e3f
00000020: 2465 433f 6238 00bf 8921 af3f a2a6 703f
00000030: 6508 f33e d69a 30bf acd7 eb3e f58f 3dbf
00000040: e010 073f aa18 e0be 2aa2 223f c1a7 433f
00000050: 82f7 72bd 164b 0cbf 5aa7 4cbf 6eaa 933f
00000060: dcc4 873f e8c4 bc3d a647 05bf 211e c5bf
00000070: c423 0abf bdb4 23bf 6308 f5be 4f8f f9be
00000080: 91f1 5fbf 04a4 edbf 0d45 46bf 7618 863f
00000090: dfde c4bf e43f 853f ea3c e43e 9b4f 0f3f
