model/point_history_classifier/point_history_classifier.tflite (tflite, 6432 bytes, 6 tensors)

sequential/dense/BiasAdd/ReadVariableOp f4 [24]
0	0xbdf20452	-0.1181723
1	0xbe14904b	-0.14508168
2	0xbda1fff0	-0.07910144
3	0xbe470aef	-0.19437765
4	0xbe1f2a83	-0.1554356
5	0xbce5db7a	-0.028058756
6	0xbcc00e66	-0.023444366
7	0xbdc86b02	-0.09786035
8	0xbd5a0d33	-0.053235244
9	0xbe0666bb	-0.13125126
10	0xbdbaddf4	-0.091243654
11	0xbdc448b7	-0.09584182
12	0xbe24e1f0	-0.16101813
13	0xbddd09e5	-0.10792903
14	0xbd7b77b7	-0.061393466
15	0xbdb96be0	-0.09053779
16	0xbe2aca14	-0.16678649
17	0xbe10f628	-0.14156401
18	0xbd87f989	-0.06639392
19	0xbd4677c7	-0.048454072
20	0xbda79f16	-0.0818464
21	0xbd17ee54	-0.03709252
22	0xbd8aaf3f	-0.06771707
23	0xbd841680	-0.06449604

sequential/dense_2/BiasAdd/ReadVariableOp f4 [4]
0	0x3fa9e835	1.3273989
1	0xbcff6917	-0.03117804
2	0xbfad950b	-1.3561109
3	0xbee9f0af	-0.4569144

sequential/dense_1/BiasAdd/ReadVariableOp f4 [10]
0	0x3ac9f689	0.0015408556
1	0x3e294804	0.16531378
2	0xb97f8ffc	-0.00024372333
3	0x3a20dee8	0.0006136731
4	0x3f83e618	1.0304594
5	0xb9ae6e79	-0.00033270175
6	0x39d7b4c6	0.00041142682
7	0x3b1f9f9a	0.0024356605
8	0xbf5efa6e	-0.87100875
9	0x3def5d58	0.11687726

sequential/dense/MatMul f4 [24, 32]
0	0x3e64cca8	0.22343695
1	0x3e5a4ce8	0.213184
2	0x3df4ac91	0.11946977
3	0xbf854b62	-1.041363
4	0xbeba11b4	-0.3634163
5	0xbf82d60f	-1.0221575
6	0xbf0009f8	-0.5001521
7	0xbf2949f3	-0.6612846
8	0xbf23e78c	-0.6402519
9	0xbedd5b44	-0.43233693
10	0xbf8f8351	-1.121195
11	0xbe9e5d40	-0.3093052
12	0xbf446c7b	-0.7672803
13	0x3e1f651f	0.15565918
14	0xbf3f0ff4	-0.7463372
15	0x3e499dd3	0.19689111
16	0xbf0ee280	-0.5581436
17	0x3ebbfe40	0.36717415
18	0xbeca30bd	-0.3949031
19	0x3ef11e09	0.47093228
20	0x3da62d2d	0.08114085
21	0x3f133a9c	0.57511306
22	0x3ef3b2c6	0.4759733
23	0x3f15751b	0.58381814
24	0x3f4449c8	0.7667508
25	0x3ef331e7	0.4749901
26	0x3f340699	0.7032257
27	0x3debe02c	0.11517367
28	0x3d1cba5c	0.038263664
29	0xbe5821fb	-0.21106713
30	0xbc44aa59	-0.012003505
31	0xbe730148	-0.23730958
32	0x3d4ad320	0.04951775
33	0x3e1e8816	0.154816
34	0xbe64ef4b	-0.22356908
35	0xbfbec255	-1.4903055
36	0xbf1358d3	-0.5755741
37	0xbfaa72f2	-1.3316329
38	0xbf29a48d	-0.6626671
39	0xbf869b42	-1.0516131
40	0xbf1a468b	-0.6026389
41	0xbf27cdd5	-0.6554845
42	0xbf46b501	-0.7761994
43	0xbe978466	-0.295932
44	0xbf50f458	-0.8162284
45	0xbe9ee636	-0.31035012
46	0xbf1df59c	-0.61702895
47	0xbd175166	-0.036942862
48	0xbee0175f	-0.4376783
49	0x3e35bbe8	0.17747462
50	0xbf0e9fab	-0.55712384
51	0x3dda6404	0.10663608
52	0xbe9baf65	-0.30407253
53	0x3e854211	0.26026967
54	0xbdc1d0c2	-0.094636455
55	0x3ec9b14d	0.39393082
56	0xbe700c78	-0.23442256
57	0x3e9a4681	0.30131915
58	0xbe16bf78	-0.14721477
59	0x3f0efe72	0.55857
60	0xbd67001d	-0.056396592
61	0x3f14ccd4	0.5812504
62	0xbeded237	-0.43519756
63	0x3e89821d	0.2685708
64	0xbe15f27f	-0.14643286
65	0xbe874b6a	-0.26424724
66	0xbf8c0d54	-1.0941567
67	0x3fa3d5b5	1.2799593
68	0xbed277fb	-0.41107163
69	0x3fa84947	1.3147362
70	0xbf3f6ab9	-0.7477222
71	0x3f787225	0.9704917
72	0xbf34b835	-0.7059358
73	0x3ed54149	0.4165137
74	0xbf2c5244	-0.6731303
75	0x3e9416e9	0.2892373
76	0xbf549c6e	-0.8305119
77	0x3c44f573	0.01202141
78	0xbf51a2d8	-0.81889105
79	0xbe42bdab	-0.19017665
80	0xbf3bed72	-0.7340919
81	0xbee9f310	-0.45693254
82	0xbef2753e	-0.47355074
83	0xbf0d7137	-0.5525088
84	0xbe8f88ae	-0.28033966
85	0xbedd7943	-0.43256578
86	0x3e902e9e	0.28160566
87	0xbf273fad	-0.65331537
88	0xbe2adc33	-0.16685562
89	0xbf3150c7	-0.6926388
90	0x3eb7aa54	0.35872138
91	0xbeff9118	-0.49915385
92	0x3f037b2f	0.5135984
93	0xbf00f654	-0.50375867
94	0x3f10f59b	0.56624764
95	0xbe5515a2	-0.20809034
96	0xbe1c4584	-0.15260893
97	0xbe96d9ac	-0.29462945
98	0xbf77e34f	-0.9683122
99	0xbf97ebe9	-1.1868869
100	0xbecb04e4	-0.3965217
101	0xbfa4861d	-1.2853428
102	0xbeae1c9e	-0.34006208
103	0xbf360d8c	-0.7111442
104	0xbedaffb2	-0.42773205
105	0xbf24e4be	-0.6441153
106	0xbe2f6927	-0.17129956
107	0xbf1fa141	-0.6235543
108	0x3e33dffb	0.1756591
109	0xbf12f837	-0.57409996
110	0x3ecd7239	0.40126207
111	0xbec4ea6b	-0.38460097
112	0x3f6a994f	0.9164018
113	0xbe49cd90	-0.19707322
114	0x3f87e9fb	1.061828
115	0xbe186b08	-0.14884579
116	0x3f51387e	0.81726825
117	0xbe14b4f9	-0.1452216
118	0x3f665b2d	0.89982873
119	0x3d6fe212	0.058565207
120	0x3f583cfa	0.8446804
121	0x3ee6e415	0.45095888
122	0x3e6cabf5	0.23112471
123	0x3ec8d431	0.3922439
124	0x3e865e7e	0.26243967
125	0x3f3199d6	0.6937536
126	0x3e1fd614	0.15609008
127	0x3f6936a4	0.91099
128	0x3e3c6658	0.18398416
129	0xbe9ea78d	-0.30987206
130	0x3ef2524e	0.47328418
131	0xbf688de6	-0.9084152
132	0x3f89ab55	1.0755411
133	0xbf5828a9	-0.8443704
134	0x3ef546fa	0.47905713
135	0xbf3976c2	-0.72446835
136	0x3f3b6531	0.7320128
137	0xbee3369d	-0.44377604
138	0x3f2461cd	0.6421173
139	0xbe8f6f58	-0.28014636
140	0x3f202e65	0.6257079
141	0x3d151aa2	0.036402352
142	0x3e9e6821	0.3093882
143	0x3e96317c	0.2933463
144	0x3efc5b29	0.492883
145	0x3f04b4db	0.51838464
146	0x3e8fc1fa	0.2807768
147	0x3ec59991	0.38593724
148	0xbc68abee	-0.0142011475
149	0x3f146c98	0.579782
150	0x3dd4099f	0.103533976
151	0x3ef74768	0.48296666
152	0xbdc940d4	-0.09826818
153	0x3e9dd781	0.3082848
154	0xbed19e02	-0.40940863
155	0x3ec63ff8	0.3872068
156	0xbed5b05f	-0.41736123
157	0x3e8a275e	0.2698316
158	0xbf19ff60	-0.60155296
159	0x3ebabd39	0.3647249
160	0xbe4b9d68	-0.19884264
161	0xbe1f59c8	-0.15561593
162	0x3f3216e1	0.6956616
163	0xbea35bb5	-0.31905904
164	0x3eb0d106	0.34534472
165	0xbed957ff	-0.42449948
166	0x3ef3a445	0.47586265
167	0xbf978b84	-1.1839452
168	0x3f465621	0.7747517
169	0xbf91f508	-1.1402903
170	0x3ea399b2	0.31953198
171	0xbfac7905	-1.3474432
172	0x3eedc0af	0.46436068
173	0xbf844a7d	-1.0335232
174	0x3ed606ea	0.4180215
175	0xbf81a906	-1.0129707
176	0x3df20df3	0.11819067
177	0xbf1145e7	-0.5674729
178	0x3dd3d3a0	0.10343099
179	0xbe47013e	-0.19434068
180	0x3e07c97a	0.13260451
181	0x3e973b58	0.29537463
182	0xbc5abe2d	-0.0133510055
183	0x3f01ddd7	0.50729126
184	0xbddc9831	-0.10771216
185	0x3f16bff9	0.5888668
186	0xbe5bc1ab	-0.21460597
187	0x3f34ef00	0.70677185
188	0xbecc7e56	-0.39940137
189	0x3ecb9bed	0.397674
190	0xbea81f50	-0.3283639
191	0x3e6ad6d8	0.22933519
192	0x3db89b40	0.090139866
193	0xbd5fd408	-0.054645568
194	0x3f34e8d9	0.706678
195	0xbf0a7522	-0.5408498
196	0x3faa652e	1.3312128
197	0xbf096144	-0.5366404
198	0x3f93bef9	1.1542655
199	0xbe9d8ddb	-0.3077229
200	0x3f76982d	0.9632595
201	0xbc5f6712	-0.013635414
202	0x3f24ace5	0.64326316
203	0x3e3ece4b	0.18633382
204	0x3ebd1614	0.36930907
205	0x3eadfedd	0.33983508
206	0x3e703dae	0.23461029
207	0x3efd5325	0.49477497
208	0x3e81c6c8	0.2534697
209	0x3f06f0cd	0.5271118
210	0xbe01cc65	-0.12675627
211	0x3ed44872	0.4146152
212	0xbeaa6c5a	-0.3328579
213	0x3f0e1238	0.5549655
214	0xbf3e5d92	-0.74361527
215	0x3f072062	0.5278379
216	0xbf1b1133	-0.6057312
217	0x3e3d3716	0.18478045
218	0xbf468529	-0.77546936
219	0x3aeaaf2c	0.0017904988
220	0xbf0979b3	-0.53701323
221	0xbe16685e	-0.1468825
222	0xbf08817b	-0.5332257
223	0xbf204129	-0.62599427
224	0xbe68ed8a	-0.22746864
225	0xbbb67780	-0.0055684447
226	0xbfadb925	-1.3572127
227	0x3e4a22e4	0.19739872
228	0xbf999e18	-1.2001371
229	0x3ead45de	0.33842367
230	0xbfb899be	-1.4421918
231	0x3f199d57	0.60005707
232	0xbf5a3d31	-0.8524962
233	0x3f1e9d94	0.61959195
234	0xbf074c53	-0.52850837
235	0x3f3128f1	0.69203097
236	0xbdadd519	-0.08487911
237	0x3f0510ba	0.5197865
238	0x3e956e71	0.29185823
239	0x3f02bccd	0.5106934
240	0x3f04b16f	0.5183324
241	0x3ec826f3	0.39092216
242	0x3f45ffaa	0.7734324
243	0x3e9c8f59	0.30578116
244	0x3f5aa031	0.8540068
245	0x3e3fc001	0.18725587
246	0x3f196bf4	0.5993035
247	0xbc8ba68a	-0.017047185
248	0x3f2640f7	0.6494288
249	0xbdd6de19	-0.104915805
250	0x3f40a226	0.7524742
251	0xbd018bbf	-0.031627413
252	0x3f10e353	0.5659687
253	0xbe3ba20c	-0.18323535
254	0x3ebd2802	0.36944586
255	0x3b4d0b94	0.0031287419

sequential/dense_1/MatMul f4 [10, 24]
0	0xbe1594e2	-0.14607576
1	0xbe9694a3	-0.29410276
2	0x3f67ecf7	0.90595955
3	0x3f86d80a	1.053468
4	0x3f81c13b	1.0137094
5	0x3f08e982	0.53481305
6	0x3f8135d4	1.0094552
7	0x3f1019ed	0.5628956
8	0x3f48c5a6	0.7842659
9	0xbe8997e7	-0.26873705
10	0xbe479252	-0.1948941
11	0x3f6e9638	0.93197966
12	0xbf19b884	-0.60047174
13	0x3ed4ad73	0.4153858
14	0x3f8a90ab	1.0825399
15	0x3f728b09	0.947434
16	0xbdc5a544	-0.096506625
17	0x3f4d291c	0.8014085
18	0x3f177387	0.59160656
19	0x3e7f039d	0.24903722
20	0xbc627ff6	-0.013824454
21	0x3f065141	0.52467734
22	0xbc8fcbc8	-0.017553225
23	0x3f2cfc3c	0.6757238
24	0xbd2b7ec5	-0.041868944
25	0x3eedcbab	0.4644445
26	0x3e9251f1	0.2857814
27	0x3f8b075b	1.086162
28	0x3f381237	0.71902794
29	0x3def218b	0.1167632
30	0x3f40b4d7	0.7527594
31	0x3edda5b1	0.43290475
32	0x3f0ddd29	0.5541559
33	0x3db14a51	0.08656753
34	0x3e87351b	0.26407704
35	0x3f8e4037	1.1113347
36	0x3f4be658	0.7964835
37	0x3f17a8db	0.5924203
38	0x3f7d2f35	0.9890016
39	0x3f6ad689	0.91733605
40	0x3f28ba4c	0.65909266
41	0x3f6b8b87	0.92009777
42	0xbebbf872	-0.36712986
43	0x3ec1a4d4	0.37821066
44	0x3e20f0f0	0.1571691
45	0x3dda52c7	0.1066032
46	0xbdc531c3	-0.09628632
47	0x3f291fac	0.6606395
48	0x3f6f4883	0.9347002
49	0x3f324f8f	0.69652647
50	0x3e55c384	0.20875365
51	0x3ec5c9c1	0.3863049
52	0xb9239cfd	-0.00015603374
53	0x3e5939c7	0.21213447
54	0x3ea9e389	0.33181408
55	0x3f475ea4	0.77878785
56	0x3e783c48	0.24241745
57	0x3f8295f2	1.020201
58	0x3f8f3958	1.1189375
59	0x3df86f0d	0.12130556
60	0x3f37cfe3	0.71801585
61	0x3f230c11	0.63690287
62	0x3ed7e22a	0.42164737
63	0x3f239f8b	0.6391532
64	0x3f5186a8	0.81846094
65	0x3ed25910	0.41083574
66	0x3ed15d54	0.40891516
67	0x3f53e13c	0.82765555
68	0x3fb2854b	1.3946928
69	0x3f17e8fe	0.5933989
70	0x3fbea3a5	1.489369
71	0x3e941181	0.28919604
72	0xbf08692e	-0.5328549
73	0xbf6152e5	-0.8801711
74	0x3f4f1b2a	0.80900824
75	0x3f77f910	0.96864414
76	0x3f45fa9b	0.7733552
77	0x3f2c8f12	0.6740581
78	0x3f01023b	0.5039403
79	0xbe265a46	-0.16245374
80	0x3f0103af	0.50396246
81	0xbee77051	-0.45202878
82	0xbe42042d	-0.18946905
83	0x3f176a4d	0.5914658
84	0xbf407b07	-0.75187725
85	0xbe946f30	-0.2899108
86	0x3f2a12c2	0.6643487
87	0x3f67fe02	0.9062196
88	0xbfad4ebd	-1.3539654
89	0x3eac097f	0.33600995
90	0x3f242039	0.6411167
91	0x3e8ceec7	0.27525923
92	0xbeabe83e	-0.33575624
93	0x3f601461	0.87531096
94	0xbe9b0b03	-0.3028184
95	0x3f5688b6	0.83802354
96	0x3ea54d67	0.32285616
97	0x3e8ddeae	0.27708954
98	0xbf686f77	-0.9079508
99	0xbf5f9807	-0.8734135
100	0xbfdac96c	-1.7092719
101	0x3db630e6	0.088960454
102	0xbf93df41	-1.1552507
103	0x3ee45d50	0.44602442
104	0xbf97ff58	-1.18748
105	0x3ee80915	0.4531943
106	0xbde8dde9	-0.11370451
107	0xbf2b163d	-0.6683081
108	0x3e8c7d6b	0.27439436
109	0xbe932937	-0.28742382
110	0xbf6320f8	-0.8872218
111	0xbf0e8122	-0.5566579
112	0xbeb2b3d1	-0.34902814
113	0xbfae2253	-1.3604225
114	0xbe147848	-0.14499009
115	0xbd86e7c0	-0.065871716
116	0x3f0e27e1	0.555296
117	0x3ee7c8e1	0.45270446
118	0x3f2c37f7	0.67272896
119	0xbfc37ad3	-1.5271858
120	0x400f4eae	2.2391772
121	0x3fd13501	1.63443
122	0x3fb08ff5	1.3793932
123	0x3f5d8b62	0.86540806
124	0x3f1e1857	0.6175589
125	0x3fe24d31	1.7679807
126	0x3fdaccc7	1.7093743
127	0x3fc8dcab	1.5692343
128	0x3f8a4763	1.0803035
129	0x40035b5c	2.0524511
130	0x40138c25	2.3054287
131	0x3f9fa193	1.2471184
132	0x401d712f	2.4600332
133	0x3fb66a2b	1.425115
134	0x3faa04a9	1.3282672
135	0x3f986518	1.1905851
136	0x3ff8636a	1.9405339
137	0x3f1605cb	0.5860259
138	0x3fc72861	1.5559198
139	0x400abdac	2.1678267
140	0x3ffae324	1.9600568
141	0x3fdbe32d	1.7178704
142	0x400536a2	2.0814595
143	0x3fac35ae	1.3453882
144	0x3f2b5203	0.66922015
145	0x3ef079fd	0.4696807
146	0x3f1f3f21	0.622057
147	0x3df1c009	0.11804206
148	0x3f39fa69	0.7264772
149	0x3fce8437	1.6134099
150	0x3f762f77	0.96166176
151	0x3f2ebf6d	0.6826084
152	0x3f701a71	0.93790346
153	0xbdbb3524	-0.09140995
154	0xbeba7fc8	-0.36425614
155	0x3ef95f54	0.48705542
156	0xbe97e071	-0.29663423
157	0x3e77c198	0.24194944
158	0x3f1f7e75	0.62302333
159	0x3ec6999b	0.38789067
160	0xbf1824c4	-0.594311
161	0x3f5bd417	0.858705
162	0x3fe975db	1.8239092
163	0x3f05810f	0.5215005
164	0x3ee26284	0.44215786
165	0x3fc9ccdd	1.5765644
166	0x3f81fb5b	1.0154833
167	0x3ee1ab15	0.44075838
168	0x3fc767c0	1.5578537
169	0x3fb64563	1.4239925
170	0x3deacc45	0.114647426
171	0xbe49d381	-0.19709589
172	0xbe22fe8c	-0.15917414
173	0x3d6bb248	0.05754307
174	0xbc68d95e	-0.014211981
175	0x3f89c38d	1.0762802
176	0x3dd02de2	0.101650015
177	0x3fd3965b	1.653026
178	0x3ef2c89e	0.47418684
179	0xbdf7f5e7	-0.12107449
180	0x3f83d688	1.0299845
181	0x3f7ac1c4	0.9795191
182	0xbd0b0650	-0.033941567
183	0xbdb65e6d	-0.08904729
184	0x3fb49fb8	1.4111242
185	0xbe456b55	-0.19279225
186	0xbd4e0a15	-0.050302584
187	0x3f50be81	0.81540686
188	0x3f9bba2a	1.2166188
189	0x3ce4ae80	0.02791524
190	0x3f8e8227	1.1133469
191	0x3ccd970b	0.025096437
192	0x3f2aea51	0.6676379
193	0x3f04fe79	0.51950794
194	0x3e3b00ba	0.18261996
195	0x3eaf143c	0.34195125
196	0x3ec51c05	0.3849794
197	0x3ede142b	0.43374762
198	0x3e6b1d8c	0.2296049
199	0x3f570456	0.8399099
200	0x3e0a5148	0.13507569
201	0x3f1d3541	0.61409384
202	0xba71d175	-0.0009224632
203	0x3e6b06cc	0.22951812
204	0xbf15a83e	-0.5845984
205	0xbfaec107	-1.3652657
206	0x3e692048	0.2276622
207	0x3e98dd00	0.2985611
208	0xbeef2fdf	-0.4671621
209	0x3e95d814	0.29266417
210	0x3ef02375	0.46902052
211	0xbdd38aa5	-0.10329179
212	0x3f2934c1	0.6609612
213	0x3f3f882d	0.7481716
214	0x3f4c44d5	0.7979253
215	0x3e1b05f5	0.15138991
216	0x3e785c06	0.24253854
217	0x3f2e039a	0.67974246
218	0x3f57b709	0.84263664
219	0x3eedc2e2	0.46437746
220	0x3f26fe95	0.6523221
221	0xbe08c655	-0.13356908
222	0x3e5f03e5	0.2177883
223	0x3ee8a1ee	0.45436043
224	0x3f1b0276	0.6055063
225	0x3f4d92ec	0.8030231
226	0x3ecf5d5d	0.40500918
227	0x3ef995f3	0.48747215
228	0x3f4b97f4	0.7952874
229	0x3f436eaa	0.76340735
230	0x3f4e62f6	0.8061975
231	0x3f289b1f	0.65861696
232	0x3f58efdc	0.84740996
233	0x3f09aa6e	0.5377568
234	0xbeb9c2c6	-0.36281413
235	0x3f33b959	0.70204693
236	0x3ed0e1a0	0.40797138
237	0xbcd01a89	-0.025403278
238	0xbe46ce88	-0.19414723
239	0x3f24f041	0.644291

sequential/dense_2/MatMul f4 [4, 10]
0	0xc085ba26	-4.178973
1	0xc048f8d7	-3.140188
2	0xc0b80ad9	-5.751324
3	0xc0a977ff	-5.295898
4	0x400555e8	2.0833683
5	0xc0b7a500	-5.7388916
6	0xc0ac4d13	-5.3844085
7	0xc0957bec	-4.671377
8	0xbe153303	-0.1457024
9	0xc06d9dbd	-3.7127526
10	0x3f9b167d	1.2116238
11	0x3ee312b0	0.44350195
12	0xbf1f4a3a	-0.62222636
13	0x3f8d7dbb	1.1053995
14	0xbfe1c46f	-1.7638072
15	0x3e49ceeb	0.19707839
16	0x3f4ee01e	0.80810726
17	0xbff7e847	-1.936776
18	0xc0417752	-3.0229077
19	0xbe780571	-0.24220826
20	0x3de05c39	0.1095509
21	0xbee7574c	-0.4518379
22	0x3f5c1740	0.85972977
23	0xbf346840	-0.7047157
24	0x3e9276f2	0.28606373
25	0x3f1ac120	0.60450935
26	0x3f3ae7d9	0.7301002
27	0x3f4ce316	0.80034006
28	0xbef4b1b8	-0.4779184
29	0xbecec333	-0.403833
30	0x3ef25a20	0.47334385
31	0x3f3e4a9a	0.7433258
32	0x3ecaf012	0.39636284
33	0xbf00d3d8	-0.5032325
34	0xbf9b7423	-1.2144817
35	0x3ef3beba	0.4760645
36	0xbe9e472a	-0.3091367
37	0x3ea9f3f0	0.33193922
38	0x3f6164bf	0.8804435
39	0x3f412882	0.75452435
